data/CiteULike/MLP_MF.pt (torch, 203144 bytes, 4 tensors)

fc1.weight f4 [100, 300]
0	0x3d3653c0	0.044513464
1	0xbc1196ee	-0.008886082
2	0xbd31b588	-0.043386012
3	0x3d508cda	0.050915577
4	0xbc75a4fc	-0.014992949
5	0xbd001076	-0.0312657
6	0xbd13b1cf	-0.036058243
7	0x3d19ad68	0.03751889
8	0xbcd8eb39	-0.02647935
9	0xbc27f42f	-0.010251089
10	0xbbb737c0	-0.0055913627
11	0x3d04a9b1	0.032388393
12	0x3d5924d3	0.053013634
13	0x3ce54c32	0.027990434
14	0x3bee46e7	0.007271636
15	0xbd4f14c5	-0.050556917
16	0x3d226faa	0.039657272
17	0x3d0e2a09	0.034708057
18	0x3cef8efa	0.029242981
19	0x3c5af399	0.013363742
20	0xb8d7878f	-0.00010277249
21	0x3ce1ba64	0.027554698
22	0x3cf3f7d4	0.02978126
23	0xbb26e60f	-0.0025466715
24	0xbbb19785	-0.005419674
25	0xbd2430e1	-0.040085677
26	0x3c8d05d8	0.0172147
27	0x3ccf38bc	0.025295608
28	0x3d0ae31f	0.033908006
29	0x3c45af88	0.012065776
30	0xbd49f21d	-0.049303163
31	0x3c4f6287	0.012657768
32	0xbd1bbb8e	-0.038020663
33	0xbd14d954	-0.036340073
34	0x3b3c6da2	0.002875187
35	0x3bfdaf02	0.00774181
36	0x3c53636b	0.012902121
37	0x3cb919c0	0.022595286
38	0xba9ccd5b	-0.0011963056
39	0xbc740f49	-0.014896222
40	0x3d0f8864	0.03504218
41	0x3d06f6ce	0.032950215
42	0xbd06340f	-0.03276449
43	0xbbcba1bb	-0.006214348
44	0xbd7a833c	-0.06116031
45	0x3d2a3d25	0.04156222
46	0x3c8f636f	0.017503468
47	0xbd19e3cb	-0.037570756
48	0xbd225afd	-0.039637554
49	0x3d167edd	0.03674208
50	0x3cb8537c	0.022500746
51	0x3bee0251	0.0072634597
52	0xbd130e65	-0.0359024
53	0xbd2e153b	-0.042500716
54	0xbcce3fd6	-0.025176924
55	0xbd286eee	-0.041121416
56	0x3c6c974d	0.01444037
57	0xbd36bdab	-0.044614475
58	0xbcd71775	-0.026256302
59	0xbd2d4303	-0.042300235
60	0x3c59d3c6	0.01329512
61	0xbd4625c9	-0.04837588
62	0x3b6d1a14	0.0036178874
63	0x3c3f2f0e	0.011668934
64	0xbb294bef	-0.0025832613
65	0x3cc65f97	0.024215503
66	0x3ca7dd7c	0.020491354
67	0x3c4b3ec9	0.012405106
68	0x3d4a051a	0.04932127
69	0x3d20f5f2	0.03929705
70	0xbc6068b2	-0.013696836
71	0xbd3cdcd6	-0.046109043
72	0xbc0ade38	-0.008475833
73	0xbd368f70	-0.044570386
74	0x3d40d0e3	0.04707421
75	0xbc05ace1	-0.008158893
76	0xbbd5f19a	-0.0065290453
77	0xbcd6fcb9	-0.026243554
78	0x3d39d1e0	0.045366168
79	0xbc00f0b9	-0.007869893
80	0xbcbf9e87	-0.023391021
81	0x3cc09195	0.023506919
82	0x3cf32c70	0.029684275
83	0xbd06dd1a	-0.032925703
84	0x39ba867c	0.00035576883
85	0xbb06b983	-0.002055735
86	0x3d119972	0.035546727
87	0x3c57e86b	0.013177971
88	0xbc51b304	-0.012799028
89	0xbd073e37	-0.033018317
90	0x3bf728db	0.007542712
91	0x3cf7edc0	0.030264735
92	0xbc66b3cf	-0.014080956
93	0x3b529656	0.0032133064
94	0x3ca64245	0.020295272
95	0x3ce4abf4	0.027914025
96	0xbd09fed8	-0.033690304
97	0xbd3d6dcf	-0.0462473
98	0x3c0395a6	0.008031284
99	0xbcbd1ee8	-0.023086026
100	0xbc9ea653	-0.019366419
101	0x3d067a5c	0.032831535
102	0x3c97709e	0.018486317
103	0x3d31d049	0.043411527
104	0x3c7fbd94	0.015609164
105	0xbc884bd9	-0.01663773
106	0xbca7a38f	-0.020463733
107	0xbc4be2ac	-0.0124441795
108	0xbd35f7a7	-0.044425633
109	0xbccb3dff	-0.024809835
110	0xbcd5e5f7	-0.026110632
111	0xbcc2a0f9	-0.023758398
112	0xbceac7c0	-0.028659701
113	0x3b233e8a	0.0024909102
114	0xbd09bcb7	-0.033627238
115	0xbd29cc71	-0.041454736
116	0x3c7e7f44	0.015533272
117	0x3cb931f1	0.022606822
118	0xbc933178	-0.017967924
119	0x3d235b3f	0.03988194
120	0x3b20488b	0.0024457301
121	0xbba7ff43	-0.005126865
122	0xbc35cecc	-0.0110966675
123	0x3ce6a2be	0.028153773
124	0x3d2c3726	0.04204478
125	0x3cd49a62	0.025952522
126	0x3ca769b2	0.020436142
127	0xba2ec974	-0.0006667592
128	0x3ce76e0e	0.02825072
129	0xbca3a6ba	-0.019976962
130	0xbcc46550	-0.02397409
131	0x3c893dd0	0.016753107
132	0x3d0207b0	0.031745613
133	0xbc9bff83	-0.019042736
134	0x3c6314cf	0.013859942
135	0x3abfa133	0.0014620185
136	0x3c2a2b20	0.010386258
137	0x3d40da22	0.047083028
138	0xba8a4104	-0.0010547941
139	0x3cdd3d08	0.027006641
140	0xbd18d0a2	-0.037308343
141	0xbcfaa4db	-0.030596187
142	0x3c42f600	0.011899471
143	0xbd148d1f	-0.036267396
144	0xbd1d9b20	-0.038478017
145	0xbbf0da73	-0.00735026
146	0x3b46c368	0.0030328874
147	0xbc3b711a	-0.01144054
148	0xbd15fd25	-0.03661837
149	0xbcc542a3	-0.024079626
150	0xbca46bda	-0.020070959
151	0x3becc332	0.0072254175
152	0xbd1ef4fd	-0.038807858
153	0x3bac34ea	0.0052553313
154	0xbbb95156	-0.005655448
155	0x3c3330bf	0.010936915
156	0xbc3ede26	-0.011649644
157	0xbd349a96	-0.044092737
158	0xbb89497f	-0.0041896696
159	0xbcf300a2	-0.029663388
160	0xbd0597b2	-0.03261537
161	0x3cfeffcc	0.031127833
162	0xbd33253c	-0.04373668
163	0xbcc82a38	-0.024434194
164	0x3c81c623	0.01584155
165	0xbd0ce97d	-0.03440236
166	0xbb889fe0	-0.004169449
167	0xbd3fd8c8	-0.046837598
168	0x3ad3637e	0.0016127673
169	0x3c9fdc7a	0.019514311
170	0x3cc2a8a6	0.023762058
171	0x3bde90e7	0.006792176
172	0xbd29517c	-0.041337475
173	0x3d32c33c	0.04364322
174	0xbcf6be01	-0.030119898
175	0xbc0f909f	-0.008762508
176	0x3bd3c799	0.006463003
177	0x3c221d26	0.009894645
178	0xbc3f4b4f	-0.01167567
179	0x3c2e76c9	0.010648438
180	0x3ce30e42	0.02771676
181	0x3d010039	0.031494353
182	0x3d37a744	0.04483725
183	0x3b36b0c1	0.002787635
184	0xbc93a961	-0.018025102
185	0x3c3fc30f	0.01170422
186	0x3c96c8ee	0.018406358
187	0x3c5a3ca2	0.01332012
188	0x3d18239e	0.037143342
189	0xbb38da95	-0.0028206457
190	0xbbedbd20	-0.0072552115
191	0xbd205259	-0.039141033
192	0x3b917032	0.0044384236
193	0x3c094bba	0.008379871
194	0xbd170298	-0.036867708
195	0x3cf0bf2b	0.029388031
196	0x3cbc00d4	0.022949614
197	0xbce75c1a	-0.02824216
198	0x3c934327	0.017976357
199	0xbca3a947	-0.019978179
200	0xbbe56894	-0.007000992
201	0xbcdfc2ac	-0.027314506
202	0xbcdd482c	-0.027011953
203	0x3c89d78e	0.016826417
204	0x3a7806a3	0.0009461438
205	0xbd06e224	-0.03293051
206	0xbcfab04f	-0.030601649
207	0x3d14a276	0.036287747
208	0xbca7baa6	-0.020474743
209	0xbc8af466	-0.016962241
210	0x3c5e5a7e	0.01357138
211	0x3ccbe7c9	0.024890797
212	0xbce28c12	-0.027654681
213	0x3b9d7996	0.004805754
214	0xbcb6c717	-0.02231173
215	0x3cb9b944	0.02267135
216	0x3cd1a065	0.025589177
217	0xbc0cf287	-0.008602745
218	0xbc129e54	-0.008948881
219	0xbd252f33	-0.040328216
220	0x3cf86426	0.030321192
221	0xbd08b5e4	-0.03337659
222	0x3b1f0856	0.0024266443
223	0xbc57e8dc	-0.013178077
224	0xbb201155	-0.0024424393
225	0xbd388921	-0.04505265
226	0x3d062d5e	0.03275811
227	0x3d267ad8	0.040644497
228	0xbbd6811c	-0.0065461528
229	0x3d0c3b57	0.03423628
230	0x3be3e9d8	0.0069553666
231	0x3c74b7e6	0.014936423
232	0xbc971153	-0.018440878
233	0x3b4d5eb9	0.0031336977
234	0x3bd6df95	0.006557415
235	0x3c7a85f0	0.015290722
236	0x3cc6b3d7	0.024255676
237	0x3bffce72	0.0078065926
238	0xbd22e706	-0.039771102
239	0xbcccf170	-0.02501747
240	0xbc361c2c	-0.011115115
241	0xbd111b59	-0.03542647
242	0x3c2bf087	0.010494358
243	0xbd35ae3c	-0.044355616
244	0x3ba4e851	0.005032577
245	0xbd2eaaff	-0.042643543
246	0xbd1819c7	-0.03713396
247	0x3d26234a	0.040560998
248	0x3d3ffbae	0.04687088
249	0xbc577941	-0.013151468
250	0xbd2dc5af	-0.042424854
251	0xbd16ba6e	-0.036798887
252	0xbcc33dae	-0.023833122
253	0xbcf9957f	-0.030466793
254	0xbcad8e79	-0.0211861
255	0xbbdef330	-0.0068038926

fc1.bias f4 [100]
0	0xbc2f5cb6	-0.010703256
1	0xbd67e3c4	-0.0566137
2	0x3d23ee44	0.04002215
3	0x3cebd058	0.02878587
4	0x3d35397e	0.044244282
5	0x3d158cd3	0.036511254
6	0xba90279b	-0.0010998131
7	0xbc9ef2ff	-0.019402979
8	0x3cedc8bd	0.029026384
9	0x3baa64b4	0.005199993
10	0x3cd3b5d5	0.02584354
11	0x3980e981	0.00024588036
12	0xbbc3eeae	-0.0059793806
13	0x3cb83159	0.022484468
14	0x3d0d9c6e	0.03457301
15	0xbd87a3f3	-0.06623068
16	0xbc14b717	-0.009076855
17	0xbd30d15d	-0.043168414
18	0xbcc2781e	-0.023738917
19	0xbbd1e3ba	-0.006405321
20	0xbb882f09	-0.0041559977
21	0x3cb82f41	0.02248347
22	0xbbfa2e6b	-0.007634928
23	0xbd90e59a	-0.07075043
24	0x3bad3f2a	0.0052870708
25	0x3d09847b	0.03357361
26	0xbd3beacd	-0.04587822
27	0xbd8d9c79	-0.069146104
28	0xbc7a043f	-0.015259801
29	0xbc8d39fb	-0.017239561
30	0xbd2917f8	-0.041282624
31	0xbd123152	-0.035691567
32	0x3d13bc6d	0.03606837
33	0xbd8b8de7	-0.06814175
34	0xbd7c39a7	-0.06157842
35	0xbc872744	-0.016498215
36	0xbcdc315e	-0.026879009
37	0xbc5d8954	-0.013521511
38	0xbc96732d	-0.018365467
39	0x3cf60a3d	0.030034179
40	0xbd59cbb8	-0.053172797
41	0xbbecd6b1	-0.0072277416
42	0xbd353b46	-0.04424598
43	0xbd807e86	-0.062741324
44	0x3c99f385	0.018792877
45	0xbd38319a	-0.04496918
46	0x3d0e3f4c	0.034728333
47	0x3c576360	0.013146251
48	0xba5d62f4	-0.0008445226
49	0xbd5ed2ba	-0.054400183
50	0xbd819f99	-0.06329269
51	0xbd5e2196	-0.05423125
52	0xbc8fba35	-0.017544845
53	0xbd61297c	-0.054971203
54	0xbc9f180c	-0.019420646
55	0x3c7abdef	0.015304073
56	0xbc6a0796	-0.014284035
57	0x3d250577	0.040288415
58	0xbd717f84	-0.0589595
59	0x3d208098	0.039185137
60	0xbd71e6b6	-0.059057914
61	0xbcc5e25f	-0.024155794
62	0xbd5e5978	-0.054284543
63	0x3be2b360	0.006918356
64	0xbb5f404f	-0.003406543
65	0xbd607d2c	-0.054806873
66	0x3ce88267	0.028382493
67	0x3b0af894	0.0021205293
68	0xbcacf352	-0.021112118
69	0x3d233588	0.039845973
70	0xbcc8b763	-0.024501508
71	0xbca8848d	-0.020571018
72	0x3bb5baee	0.0055459654
73	0x3c65ece4	0.01403353
74	0x3ba73f61	0.005103991
75	0x3bd31ac5	0.0064424
76	0xbba49b08	-0.005023364
77	0xbd6995d2	-0.057027645
78	0x3b871af7	0.0041230875
79	0x3d1c3650	0.038137734
80	0x3c3f8379	0.01168906
81	0xbd303385	-0.043017883
82	0x3ce20bb1	0.027593466
83	0x3c9c0224	0.01904399
84	0xbd5934d1	-0.053028885
85	0xbce579a6	-0.028012108
86	0xbcb8a29b	-0.022538474
87	0xbbb66460	-0.005566165
88	0x37a6ef7c	1.990026e-05
89	0xbc3bbfea	-0.01145933
90	0xbd617004	-0.055038467
91	0xbd772c92	-0.06034524
92	0x3d1eacd4	0.03873904
93	0xbc1453cf	-0.009053185
94	0xbc90bfe8	-0.017669633
95	0xbd819399	-0.0632698
96	0xbd81d36d	-0.063391544
97	0xbcee2a30	-0.029072851
98	0x3cbdb657	0.023158235
99	0xbd4fa882	-0.05069781

fc2.weight f4 [200, 100]
0	0x3bdf6239	0.006817129
1	0xbcae0ca4	-0.021246262
2	0xbd8cf42e	-0.06882511
3	0xbbd5179a	-0.0065030577
4	0xbd8ea8c4	-0.06965783
5	0x3d18fbad	0.03734939
6	0x3db54f6f	0.088530414
7	0xbd86c56f	-0.06580626
8	0x3d7a399a	0.06109009
9	0xbd262062	-0.040558226
10	0x3dcf41ce	0.10119973
11	0x3da68651	0.081310876
12	0xb92bc01e	-0.000163794
13	0xbd95ccfd	-0.07314489
14	0xbda6c2e7	-0.081426434
15	0x3ce502cf	0.02795544
16	0x3d869142	0.065706745
17	0x3d60f9e3	0.05492581
18	0x3cf23b3f	0.029569266
19	0x3d59f6aa	0.053213753
20	0x3d60b646	0.05486133
21	0xbd998c2f	-0.07497441
22	0x3d048225	0.032350678
23	0x3ca7f9cf	0.02050486
24	0x3dbd48b8	0.092423856
25	0xbc842c31	-0.016134353
26	0xbd2a1d7d	-0.04153203
27	0x3c736b1d	0.014857081
28	0x3db5af78	0.08871359
29	0x39b1b4f9	0.00033894906
30	0xbd31725f	-0.043321963
31	0x3d5fd4b2	0.0546462
32	0xbd2447c8	-0.04010752
33	0xbd989dac	-0.074519485
34	0xbd00e7f5	-0.03147121
35	0x3dc5b54f	0.096537225
36	0xbd5bd328	-0.05366817
37	0xbd3f73d6	-0.04674133
38	0xbdad56d6	-0.08463828
39	0x3c452a48	0.012034006
40	0x3d727379	0.059192155
41	0x3d776ebb	0.060408335
42	0xbd68b531	-0.056813423
43	0xbc2629e6	-0.010141825
44	0xbd54d664	-0.05196227
45	0xbcaa89d8	-0.020817682
46	0x3dae926a	0.0852402
47	0x3db44b32	0.08803405
48	0x3c96f599	0.018427657
49	0x3d9fb43d	0.077980496
50	0xbd247f41	-0.04016042
51	0x3d92fd53	0.07177224
52	0x3d8bac95	0.06820027
53	0xbd440a33	-0.04786129
54	0xbd73ec72	-0.059551664
55	0x3d45886d	0.04822581
56	0xbd4b9f6f	-0.049712595
57	0x3db64f94	0.08901897
58	0xbca7705f	-0.020439325
59	0xbd3cfbf3	-0.046138715
60	0x3d1737d1	0.036918465
61	0xbdaa06b5	-0.083020605
62	0xbcf1b4d6	-0.029505175
63	0xbcbef922	-0.023312155
64	0xbd4579f0	-0.04821199
65	0x3d76eec9	0.060286317
66	0xbd16b787	-0.03679612
67	0xbc7864b3	-0.015160727
68	0xbdb20957	-0.08693188
69	0x3c69e29b	0.014275218
70	0x3cfff774	0.031245925
71	0x3c8dfbc1	0.01733196
72	0x3d7916e0	0.06081283
73	0xbda60da7	-0.08108073
74	0x3d272897	0.040810194
75	0x3d73c409	0.059513126
76	0x3cfbdc2c	0.030744635
77	0xbbcf7f38	-0.0063323043
78	0x3cfd0d5e	0.030890163
79	0xbd2b77f7	-0.041862454
80	0xbd1283d1	-0.03577024
81	0xbce24a60	-0.027623355
82	0x3d894b61	0.067038305
83	0xbc27c0c9	-0.010238835
84	0x3a567074	0.0008180209
85	0x3c24bc0a	0.010054598
86	0x3b6a0da6	0.0035713702
87	0xbc98c8b4	-0.01865039
88	0xbd18c8a3	-0.037300717
89	0x3db894b2	0.090127364
90	0xbd5e4f5d	-0.054274905
91	0xbd8989fa	-0.0671577
92	0xbd82fca7	-0.06395846
93	0xbd18441b	-0.037174325
94	0x3dc7544a	0.09732874
95	0x3ca36f99	0.019950675
96	0x3c92f0c6	0.017937075
97	0x3d47004a	0.04858426
98	0x3d15bee4	0.036559
99	0x3ce64b94	0.02811221
100	0x3d4704f4	0.048588708
101	0xbcde2173	-0.02711556
102	0x3d0b91b6	0.034074508
103	0x3bc892b9	0.0061210063
104	0xbd185228	-0.037187725
105	0x3d931d90	0.07183373
106	0xbda06d45	-0.078333415
107	0xbd6794fa	-0.05653856
108	0x3d624f2b	0.05525128
109	0x3c81dc63	0.015852159
110	0x3c2aedf5	0.01043271
111	0x3d88d506	0.06681256
112	0xbda69d15	-0.0813543
113	0xbb7c15be	-0.0038465108
114	0x3d83739a	0.064185336
115	0x3d988771	0.074477084
116	0xbd3625fe	-0.044469826
117	0xbd2743e3	-0.040836226
118	0x3d448479	0.0479779
119	0x3cb0b18e	0.02156904
120	0xbdb8327a	-0.08994003
121	0x3cb063b3	0.021531915
122	0xbc4668c7	-0.012109942
123	0xbcb3055b	-0.02185314
124	0xbd9faeb8	-0.07796997
125	0x3a142d4f	0.00056525035
126	0xbdaf3e88	-0.08556849
127	0x3d8d31be	0.06894253
128	0x3d960a5c	0.07326195
129	0xbd090a62	-0.033457167
130	0xbcedc93b	-0.029026618
131	0x3bed9d85	0.007251444
132	0xbcb6a741	-0.02229655
133	0x3d3270b9	0.043564532
134	0xbbbd0fc1	-0.0057697003
135	0x3d3dc129	0.04632679
136	0xbda53a6c	-0.08067784
137	0xbdb82b22	-0.08992602
138	0xbd046dc0	-0.03233123
139	0xbd926fe7	-0.0715025
140	0xbb9f20c3	-0.0048562004
141	0x3c8c1701	0.017100813
142	0x3d5b2cf6	0.053509675
143	0x3d777211	0.060411517
144	0x3d47b24b	0.048754018
145	0x3cd7ba6c	0.02633401
146	0xbd001380	-0.031268597
147	0x3c9f8f8c	0.019477628
148	0xbd84df25	-0.06487874
149	0x3d898229	0.06714279
150	0xbd8206d8	-0.063489616
151	0xbdaedaf0	-0.08537853
152	0xbd8b4527	-0.06800299
153	0x3d020e49	0.031751905
154	0xbd8b3b32	-0.067984
155	0x3da6a065	0.081360616
156	0x3d61b9ba	0.055108763
157	0xbd81ae6e	-0.06332098
158	0x3d646b41	0.055766348
159	0xbd9c373b	-0.07627722
160	0x3d9ca551	0.07648719
161	0x3d8176de	0.063215
162	0xbd52ce60	-0.051466346
163	0xbd4e4dc0	-0.050367117
164	0xbd9662e8	-0.073430836
165	0x3d9b5e7f	0.07586383
166	0x3da4f6dc	0.08054897
167	0xbd9676a0	-0.07346845
168	0x3dac8f86	0.084258124
169	0xbd29826b	-0.041384142
170	0x3d9df423	0.07712581
171	0x3cb538c1	0.022121789
172	0xbc3d11d4	-0.011539895
173	0x3d8f12a2	0.06985976
174	0x3c03f85f	0.008054822
175	0xbb986ac8	-0.004651401
176	0xbd93ca52	-0.07216324
177	0x3d28b706	0.04119017
178	0xbd1458da	-0.036217548
179	0xbd92dfbc	-0.0717158
180	0xbb50a2ab	-0.003183524
181	0xbdb59ac0	-0.08867407
182	0xbce2b335	-0.027673343
183	0x3d5e5f06	0.05428984
184	0x3d7903ed	0.06079476
185	0x3d8a183a	0.06742902
186	0xbd579abc	-0.0526378
187	0x3cc59045	0.024116645
188	0x3d120da1	0.03565753
189	0xbd7868a9	-0.060646687
190	0x3db434b7	0.08799117
191	0x3d74d3c4	0.059772268
192	0x3d6700c3	0.05639721
193	0x3ce2319e	0.02761155
194	0x3db88f30	0.09011686
195	0x3d0022df	0.031283256
196	0xbd6085a4	-0.05481495
197	0xbcf16ca2	-0.029470745
198	0xbc27be53	-0.010238248
199	0xbaca3847	-0.0015428149
200	0x3bf27157	0.007398765
201	0xbdb9d2df	-0.090734236
202	0x3d2b91b4	0.041887
203	0xbd1fd7ce	-0.039024167
204	0xbcdd2598	-0.026995465
205	0x3da77e7c	0.08178422
206	0x3cb564e5	0.022142837
207	0xbdbe8583	-0.09302809
208	0x3d78b752	0.060721703
209	0x3dad78f0	0.084703326
210	0x3c556072	0.013023483
211	0x3c91e82c	0.017810903
212	0xbd9b6a8d	-0.07588682
213	0x3da6329b	0.08115121
214	0x3d03244a	0.03201703
215	0x3d0a07dc	0.0336989
216	0x3da03f51	0.07824577
217	0xbdab30b3	-0.08358898
218	0xbd5234ce	-0.05131989
219	0xbcc8524c	-0.024453305
220	0xbc2518a6	-0.010076677
221	0x3d9ed8e8	0.07756215
222	0x3d99e7e3	0.07514932
223	0xbcabb00c	-0.02095797
224	0xbd89adb1	-0.06722582
225	0x3c2d3dd1	0.01057382
226	0x3d26e943	0.0407498
227	0xbd769c84	-0.06020786
228	0xbdab4642	-0.0836301
229	0x3d24cc0c	0.040233657
230	0xbdbf418a	-0.093386725
231	0xbd703f22	-0.05865396
232	0xbd080db1	-0.033216182
233	0xbb459ec8	-0.0030154455
234	0xbd29c205	-0.041444797
235	0xbd8792a8	-0.06619769
236	0xbdb2f7a1	-0.08738638
237	0x3d595769	0.053061876
238	0x3d321600	0.043478012
239	0x3d49a47a	0.049229123
240	0x3d186f7c	0.037215695
241	0xbd01c668	-0.031683356
242	0xbd91039d	-0.07080767
243	0xbd8bc52e	-0.068247184
244	0xbc81350c	-0.015772365
245	0xbd04702b	-0.032333534
246	0xbd8756ab	-0.066083275
247	0xbb664564	-0.0035136575
248	0xbd9e58c7	-0.07731777
249	0x3c859d8a	0.016310472
250	0x3c70563c	0.014668997
251	0x3d90fa2d	0.07078967
252	0xbca9bead	-0.020720804
253	0x3ad672fb	0.0016361171
254	0xbda52f8f	-0.08065712
255	0xbba2dfe5	-0.004970538

fc2.bias f4 [200]
0	0xbd64c38c	-0.05585055
1	0xbd147127	-0.036240723
2	0x3d96c657	0.07362049
3	0x3dbac8bf	0.091203205
4	0xbd831d1d	-0.06402037
5	0xbd92b63b	-0.07163664
6	0x3cf791c7	0.03022088
7	0x3d973a1f	0.073841326
8	0x3c803c1a	0.015653659
9	0x3c2d6d50	0.010585144
10	0x3d272521	0.040806893
11	0x3bfad7b1	0.007655107
12	0x3dab3c29	0.08361084
13	0x3c9707c4	0.01843632
14	0xbc8a059c	-0.016848378
15	0x3d9e6e3c	0.07735869
16	0xbd9b91ff	-0.07596206
17	0xbdb19a17	-0.086719684
18	0xbc18f873	-0.009336579
19	0xbd82272f	-0.0635513
20	0xbd53d855	-0.051719982
21	0x3d7024d1	0.05862886
22	0x3d9e2a07	0.0772286
23	0x3dad340e	0.08457194
24	0x3c52c985	0.012865429
25	0x3d3683a3	0.044559132
26	0xbca2ad2b	-0.019857964
27	0xbc8cc3a1	-0.017183127
28	0x3bb2e5be	0.0054595163
29	0x3cfc2994	0.030781545
30	0x3c71dff5	0.014762868
31	0xbd53f6a7	-0.051748898
32	0x3d99f66c	0.07517704
33	0x3c3d0189	0.011536011
34	0xbbb975cb	-0.005659794
35	0x3da5e9ab	0.08101209
36	0xbdb09f72	-0.08624162
37	0xbc96a709	-0.018390195
38	0x3cd581bc	0.026062839
39	0xbd231722	-0.039816983
40	0xbda87eff	-0.082273476
41	0x3da5b3b8	0.08090919
42	0xbd13bbae	-0.036067657
43	0xbdbd8540	-0.09253931
44	0x3be5b0aa	0.0070095854
45	0xbd11d7df	-0.03560626
46	0x3dadb504	0.084817916
47	0x3ce10fa5	0.02747328
48	0xbdbad919	-0.09123439
49	0x3d0d17d5	0.034446556
50	0x3d154c36	0.036449634
51	0x3d47c552	0.048772164
52	0xbcf6efe4	-0.030143686
53	0xbdab573a	-0.083662465
54	0xbc2f4632	-0.010697888
55	0xbd762603	-0.060094845
56	0xbc32cdf5	-0.010913362
57	0xbd9e7bf8	-0.07738489
58	0xbc7ceab3	-0.015436816
59	0xbd771fcc	-0.06033306
60	0x3d0fbba1	0.035091046
61	0x3aeb4fa7	0.0017952815
62	0x38e7476c	0.00011028242
63	0xbd6793da	-0.056537487
64	0xbc2f7687	-0.010709411
65	0xbc6fb992	-0.014631646
66	0x3d950f31	0.07278288
67	0xbd479b55	-0.04873212
68	0xbda3ad83	-0.07992079
69	0xbca53d6a	-0.020170886
70	0xbd9d8a50	-0.07692397
71	0xbd013c71	-0.031551782
72	0xbb3cad98	-0.0028789993
73	0x3d7ea985	0.062173385
74	0xbd4633be	-0.04838919
75	0x3dd93b41	0.10607005
76	0xbd5c1f19	-0.053740595
77	0xbd86b770	-0.06577957
78	0xbd327a25	-0.043573517
79	0x3c6ea716	0.014566204
80	0x3c3b171c	0.011419084
81	0xbcc2222f	-0.02369794
82	0xbdbaf8ad	-0.091294624
83	0xbd482b5c	-0.048869476
84	0xbd898aac	-0.06715903
85	0x3d311f0e	0.043242507
86	0xbd6955fb	-0.056966763
87	0xbc932a0e	-0.01796439
88	0x3d4e691c	0.05039321
89	0xbd77854d	-0.06042986
90	0x3cdfd318	0.027322337
91	0xbcb35a4d	-0.021893645
92	0xbbf04666	-0.007332611
93	0xbd9f7ade	-0.07787107
94	0xbd9cc9a1	-0.07655645
95	0x3da78194	0.08179012
96	0x3d8cdca6	0.06878023
97	0x3cdb1429	0.026743012
98	0xbdaf8ca0	-0.08571744
99	0xbd792705	-0.060828228
100	0xbdb30c74	-0.087426096
101	0xbc4d1d1e	-0.012519149
102	0xbcdbab6d	-0.02681514
103	0x3d850154	0.06494394
104	0x3d5b6d6f	0.05357116
105	0xbc9df7cf	-0.019283203
106	0xbd557eb9	-0.052122805
107	0x3dbd6831	0.092483886
108	0x3d60c211	0.054872576
109	0xbda545d4	-0.08069959
110	0x3c8003ef	0.015626876
111	0x3d8c5834	0.06852761
112	0x3d8aa44a	0.06769617
113	0xbdae5ed7	-0.08514183
114	0xbda3993c	-0.079882115
115	0xbc7f9f58	-0.015601955
116	0xbdb34c5a	-0.08754797
117	0x3d9db5cb	0.0770069
118	0x3dc4759d	0.095927455
119	0xbd8f8d62	-0.070093885
120	0x3c2220fb	0.0098955585
121	0x3d056760	0.03256929
122	0x3d56fb9c	0.052486047
123	0xbda7365e	-0.081646666
124	0x3c26bbb2	0.010176586
125	0x3bf1ea4d	0.007382667
126	0xbbe7cdf7	-0.0070741135
127	0xbd30a7df	-0.043128844
128	0xbc16a407	-0.009194381
129	0xbcb287b5	-0.021793226
130	0x3dab5a86	0.08366875
131	0x3d5d9f41	0.054106954
132	0x3db1d5f7	0.08683389
133	0x3db98bb3	0.09059849
134	0x3c96caf5	0.018407324
135	0xbd049b2e	-0.032374553
136	0xbcd6ed78	-0.02623628
137	0xbd7dbcf5	-0.06194778
138	0x3d95ce42	0.07314731
139	0x3d836a5e	0.06416772
140	0xbc67107c	-0.014103051
141	0x3dac6bb7	0.084189825
142	0xbd5a2f2a	-0.053267635
143	0x3ccc4490	0.024935037
144	0x3d4f45d1	0.05060369
145	0x3db8f498	0.090310276
146	0x3d81c943	0.06337216
147	0x3d404285	0.046938438
148	0x3d2a9b0d	0.041651774
149	0x3d618d3e	0.05506634
150	0x3d82ca28	0.063862145
151	0xbd78957f	-0.060689446
152	0xbc81eb66	-0.015859317
153	0x3bd905a8	0.0066229887
154	0x3dbad7fe	0.091232285
155	0x3c136484	0.008996133
156	0x3da7fc30	0.08202398
157	0xbc72587b	-0.014791603
158	0xb9946b5c	-0.0002830875
159	0x3da4506e	0.08023153
160	0xbbb3ffab	-0.0054931245
161	0xbd88afbe	-0.06674145
162	0x3c8caf07	0.017173303
163	0x3d64fe84	0.055906788
164	0xbc7fe0bd	-0.015617547
165	0x3cc0abc7	0.02351941
166	0x3db2f9fd	0.08739088
167	0xbd5cbe2b	-0.053892296
168	0x3d5b4d1a	0.053540327
169	0x3d38fc64	0.045162573
170	0x3d5d9b35	0.054103095
171	0xbd8ec5a2	-0.06971289
172	0xbd81d403	-0.06339266
173	0xbd80dd37	-0.062921934
174	0x3cacd9bf	0.021099923
175	0x3c71e9e4	0.0147652365
176	0xbc4fc995	-0.012682338
177	0x3bb29c8b	0.0054507903
178	0x3b9146da	0.004433495
179	0xbbbd2d96	-0.0057732565
180	0xbdba96a8	-0.09110767
181	0x3d68fc53	0.05688126
182	0x3d4c0b93	0.049815726
183	0x3d855637	0.06510585
184	0x3d688a1a	0.05677233
185	0xbd552726	-0.052039288
186	0xbd5f564f	-0.05452567
187	0xbd5c4b90	-0.053783
188	0xbda7de45	-0.081966914
189	0xbd84a8e7	-0.06477528
190	0x3d0d8aa3	0.034556042
191	0x3dbbe33d	0.09174202
192	0x3c6a7957	0.014311156
193	0xbce4f863	-0.027950471
194	0xbd732424	-0.05936064
195	0xbd8507c6	-0.06495623
196	0x3d87affa	0.06625362
197	0xbd6c5615	-0.05769928
198	0x3d7d2a3f	0.061807867
199	0xbd74fb5d	-0.05981003
